weights/best_model.pth (torch, 311107 bytes, 46 tensors)

acc_proj.0.weight f4 [32, 4, 8]
000000 cd 3f 1c be c7 76 db 3d 88 f0 28 be 3f 0f 14 3e
       -0.15258713 0.10716014 -0.16498005 0.14458941
000010 8a d5 1e be c1 4b ea bd f6 0b f7 bd 9b 79 27 3e
       -0.15511146 -0.1144023 -0.12062828 0.16354983
000020 5c 2d 07 bd cc 6f 82 bc c3 75 94 3d a2 10 03 3e
       -0.033002242 -0.01592245 0.07249024 0.12799314
000030 fd 53 1b 3e d1 57 99 bd 9d ad c2 3d fe 3d 4e 3d
       0.15168758 -0.07487453 0.0950577 0.05035209
000040 85 0c 23 3e 58 90 81 bd 4f 82 cf 3d eb 2e 12 be
       0.15922745 -0.063263595 0.10132276 -0.1427571
000050 c0 d1 a2 3d 00 22 16 be e4 15 63 3d d0 ef f8 3d
       0.07950163 -0.14661407 0.0554408 0.121551156
000060 de 04 fc 3d e9 8f 04 be b6 67 3c 3e f4 15 64 bc
       0.12305616 -0.12945522 0.18398938 -0.01392125
000070 6c 3f 12 3e 02 33 1d be 70 10 4c bd f1 ef 81 bd
       0.14282006 -0.15351489 -0.049820364 -0.06344593
000080 b1 b3 d6 bc e8 de a2 3d 09 19 1a be 83 bd 2e 3e
       -0.02620873 0.07952672 -0.15048613 0.1706448
000090 18 da f4 bd af 01 34 3e 40 4a 3f 3e 15 e9 d2 3c
       -0.119556606 0.17578767 0.18680668 0.025745908
0000a0 a4 43 f8 3d ee c0 07 be 29 8c 64 bd 24 4b d5 bd
       0.121222764 -0.1325719 -0.05579773 -0.104147226
0000b0 6f 02 8b bd 66 ea 8c 3d 7f a2 06 bd 62 81 2c 3e
       -0.067875735 0.068806455 -0.032869812 0.1684623
0000c0 bd 28 cf bd 42 60 1d 3e b0 69 04 3e 97 3f a1 bd
       -0.10115192 0.1536875 0.12930942 -0.07873457
0000d0 05 23 f0 3d eb 10 6a bd 42 39 2f be 68 93 e6 3d
       0.117254294 -0.05714504 -0.17111686 0.11258584
0000e0 c5 a9 1d be ea 93 9d bd 2b d1 12 3e 92 45 9b 3d
       -0.15396793 -0.07694228 0.14337604 0.07581629
0000f0 12 35 1d 3d 69 02 e5 bc 62 2b b1 3d 48 ce 37 be
       0.03838069 -0.02795525 0.08650853 -0.17949784
000100 fa f2 ca 3d 44 1a 36 be 32 12 02 3d 88 2c 2e be
       0.09909625 -0.17783457 0.031755634 -0.17009175
000110 94 12 1d be 3d 35 e1 3d 18 18 37 bd 93 f5 a9 bd
       -0.15339118 0.109964825 -0.044700712 -0.08298793
000120 20 2b c4 bc c2 3d a2 3d 29 b8 6a bd 7d f1 d6 3c
       -0.023946345 0.079219356 -0.057304535 0.026238197
000130 11 3a 12 bb ea a8 6c 3d 0d a8 18 bd 04 d0 08 be
       -0.0022312442 0.057778277 -0.03726964 -0.13360602
000140 f2 ad ad bd 0c 75 e3 bd fd 46 2d bd 3f 44 20 bd
       -0.08480443 -0.11106309 -0.042304028 -0.039127585
000150 22 41 d3 bc 4f 97 e5 bd da 2a 48 3e 8b c2 f0 bc
       -0.025787894 -0.112105004 0.19547597 -0.02938964
000160 2b 84 bb bd dc d5 44 3d 39 a2 57 bd c2 cf e2 3d
       -0.091560684 0.048055515 -0.052644942 0.11074783
000170 2a c2 19 bd b2 dc 44 3d 3b 9d 47 bd c4 3e 53 bd
       -0.037538685 0.048062034 -0.04873393 -0.05157353
000180 5e e0 04 be 16 2d 84 bd b2 84 fa bd 9d 2b ad bc
       -0.12976214 -0.06453912 -0.12232341 -0.02113896
000190 d5 9c b6 3d 87 62 18 3e 11 48 b4 bd a6 99 44 3e
       0.08916632 0.14881335 -0.08802808 0.19199237
0001a0 3b 51 1d 3e 1b bd 38 3e 83 90 05 3e 08 6b 9a bd
       0.15363018 0.18040888 0.13043408 -0.07539946
0001b0 64 65 09 be 3f ad 0e 3c 36 da 58 bc b1 07 61 bc
       -0.13417584 0.008708297 -0.013235619 -0.013734744
0001c0 c5 8b 0d 3e d5 f1 08 3e 5c 37 2e be 75 47 5e bd
       0.13822849 0.13373502 -0.17013305 -0.054267365
0001d0 19 2c 8e 3c d7 cd 14 3e 74 7d 37 3e 2d e2 f7 bd
       0.017355012 0.14531647 0.1791895 -0.121036865
0001e0 af eb e3 bd 11 26 33 be 59 1c 8a bd 50 b1 75 bd
       -0.111289375 -0.1749499 -0.06743688 -0.05998355
0001f0 f8 32 df 3d 76 41 5d 3d 70 4a ad 3d f3 c6 42 3d
       0.108983934 0.054017507 0.084614635 0.047553014
000200 ab ad 09 be 92 5f d6 3d 4e 71 0d be 01 aa 2c be
       -0.13445155 0.10467447 -0.13812754 -0.16861726
000210 7c 13 cb bd c2 0d 16 3e 58 f4 c1 bd b2 05 07 be
       -0.09915826 0.14653686 -0.09470433 -0.13185766
000220 cd d5 de 3c 2e 68 30 be 86 cd 2e 3d 65 0f 03 be
       0.027201558 -0.17227241 0.04267647 -0.12798841
000230 eb 11 ba 3d ba 1d f5 3d 4f 33 de 3d f6 28 27 be
       0.09085449 0.119685605 0.1084963 -0.16324219
000240 4a e3 8c 3c ea 87 59 bd b8 ea 77 bd 5e 9d 37 3d
       0.017198224 -0.053108133 -0.06052658 0.04482781
000250 46 6a 92 bd 95 8c 2a 3c 79 55 25 be 96 64 58 3d
       -0.07149176 0.010409494 -0.16145886 0.0528303
000260 a3 69 df 3d b6 d0 03 3e 05 14 c9 bd b5 49 23 be
       0.109088205 0.12872586 -0.098182715 -0.15946086
000270 18 0e 03 be 30 d8 86 3d da 6c 56 bd 4b 99 2e be
       -0.12798345 0.06584203 -0.052349903 -0.17050664
000280 2a 56 36 3e 1b 6b be bd 28 f9 da bc c9 25 bb 3d
       0.17806306 -0.092977725 -0.026730135 0.09138066
000290 00 d7 05 3e 20 88 9b 3d ee f1 2e 3e a0 77 af 3d
       0.13070297 0.07594323 0.17084476 0.085677385
0002a0 cf 48 07 3e e2 11 aa 3c 61 dd be bd 30 e0 e5 bc
       0.13211368 0.02076048 -0.093195684 -0.028061002
0002b0 2e 39 75 bd 04 a5 6d 3d 9c 5c 2c bd 16 55 30 3e
       -0.059868984 0.0580187 -0.042080507 0.17219958
0002c0 22 bd 1c 3d c2 ff 69 bd 09 6b db 3c 5a 40 b9 3d
       0.03826631 -0.057128675 0.026784437 0.09045477
0002d0 5e c4 a2 3c 85 2c b1 3d ca 52 38 3d c3 dd 05 3d
       0.019869026 0.086510696 0.04500083 0.03268219
0002e0 4b 9a f2 3d b9 5a 17 3e 85 83 da 3d 95 6f a0 3c
       0.11845835 0.14780702 0.106696166 0.019584456
0002f0 5e db 12 3e ab fd 34 be 55 0a 19 3e c2 e1 fd bd
       0.14341494 -0.17674892 0.14945348 -0.123965755
000300 42 b3 29 3d 89 7a 28 3c 6a 7a fa 3d d0 1a b0 bd
       0.04143072 0.010283121 0.1223038 -0.08598864
000310 07 9b 29 3e f8 d2 4a 3d 16 36 24 3e ad e2 f5 bd
       0.16563044 0.0495176 0.16036257 -0.120061256
000320 fc 15 c1 bd 99 3a 11 bd de 60 78 3d 94 eb 30 3c
       -0.09428021 -0.035456274 0.060639255 0.010798354
000330 64 6e 87 bd 27 8f dd 3d 84 fd d5 bd 97 8f 0a 3e
       -0.06612852 0.1081832 -0.10448745 0.13531338
000340 33 60 ee bd b7 9f 0a bd 16 d9 0f be 54 d1 3b bc
       -0.11639442 -0.033843722 -0.14047655 -0.011463482
000350 83 14 0f 3e 46 55 06 3d 2b 51 21 3e 92 2b 39 3e
       0.13972668 0.032796167 0.1575362 0.18083027
000360 f6 31 b2 3d e4 69 ca 3d 96 7e c0 bd f8 bf 21 be
       0.087009355 0.09883478 -0.09399144 -0.15795887
000370 ab 87 d3 bd 4c 6e 27 3e 33 11 8c bd 17 dc 33 bc
       -0.10328611 0.16350669 -0.06839218 -0.0109777665
000380 10 72 02 bd 51 33 c9 3d 0c 8b e0 3c 00 e5 1a 3e
       -0.03184706 0.09824241 0.027410053 0.15126419
000390 b3 23 b6 bd 90 a8 09 3e 71 86 b8 bd 7a 96 31 3d
       -0.08893528 0.13443208 -0.09010018 0.043356396
0003a0 2e 9e 03 be a4 26 45 bd f5 fe 05 3e b8 52 1a be
       -0.1285331 -0.048132554 0.1308554 -0.15070617
0003b0 68 22 1a be 7d ca 18 bd 62 8c ce 3c 7c 62 8c 3b
       -0.15052187 -0.037302483 0.025213424 0.004284201
0003c0 5d b0 0e 3e a2 3f b0 bc 25 ff 0c 3e 95 05 ce bd
       0.13934465 -0.021514717 0.13769205 -0.100596584
0003d0 72 0a 33 3e ca 88 3f 3e 72 fe 13 3e 4d 2f 8d bd
       0.17484453 0.18704525 0.14452532 -0.068937875
0003e0 ab 75 33 3c 25 3d dc 3c b3 a1 34 bd b0 f9 84 3d
       0.010953347 0.026884625 -0.04409952 0.064929366
0003f0 88 68 2a be 67 54 3a be ea 4c a1 3d 2d 6a 10 bc
       -0.16641438 -0.1819626 0.07875998 -0.008814377

acc_proj.0.bias f4 [32]
000000 d1 8e e7 3d 7a e3 ad bd 49 63 2f 3e 7f a7 0c be
       0.11306537 -0.08490653 0.17127718 -0.1373577
000010 ac 97 30 bd 4e cc e4 bd 17 6c 13 3d 9c e1 54 bd
       -0.043113396 -0.111717805 0.035991754 -0.05197297
000020 7e f9 03 3e e7 c2 e8 bd 11 bb 04 3e 48 96 fa bc
       0.12888142 -0.113653 0.12961985 -0.030589238
000030 7a 79 16 be d8 6d 86 bd 92 c9 db 3d 2d cf dd bd
       -0.14694777 -0.0656392 0.10731806 -0.10830531
000040 56 62 e1 3d cd 83 ed 3d a8 df 0a bd 62 71 8f 3c
       0.11005084 0.11597405 -0.0339047 0.01751012
000050 e9 6f f5 3d 57 db 1c 3d 65 e5 92 bd f7 0a d4 bd
       0.11984236 0.038295116 -0.0717266 -0.10353654
000060 8e a3 d6 3d 55 b5 95 3d e9 63 b2 bd ab f2 43 bc
       0.10480414 0.07309977 -0.087104626 -0.011959712
000070 5b 86 02 3e 13 f5 f8 3d 78 d0 df bd b0 c3 d5 3d
       0.12746565 0.12156119 -0.10928434 0.10437715

acc_proj.1.weight f4 [32]
000000 3d 9a 81 3f 46 9e 80 3f 06 78 7e 3f 4d 1c 83 3f
       1.0125195 1.0048301 0.9940189 1.0243012
000010 38 53 81 3f 3e 7e 7b 3f 4c 05 7f 3f b3 47 7a 3f
       1.0103521 0.98239505 0.9961746 0.97765654
000020 ec bc 84 3f f0 18 81 3f 79 dc 7b 3f 56 6d 85 3f
       1.0370154 1.0085735 0.9838329 1.0423992
000030 85 b9 7d 3f e2 4f 85 3f 3f 6f 80 3f 94 d3 7a 3f
       0.99111205 1.0415003 1.003395 0.9797909
000040 cb 3c 80 3f 62 89 80 3f 35 85 7d 3f c0 5d 80 3f
       1.0018553 1.0041926 0.9903138 1.002861
000050 e9 22 7f 3f 59 ad 7f 3f bd 20 80 3f 62 19 7d 3f
       0.99662644 0.9987388 1.0009991 0.98866856
000060 20 c7 7c 3f 2c 82 7e 3f 2a cf 84 3f 2b a4 82 3f
       0.9874134 0.99417377 1.0375721 1.020635
000070 28 21 7c 3f 37 59 80 3f ed c8 82 3f 18 0f 7c 3f
       0.9848809 1.0027226 1.0217568 0.9846053

acc_proj.1.bias f4 [32]
000000 5c b0 fd 3b 6d 80 f3 bc 38 c8 94 3b 3c 0e a1 bc
       0.007741971 -0.029724324 0.0045404695 -0.019660108
000010 ce 89 a3 39 68 a4 f8 bc 28 d9 01 bd ae 19 3f bc
       0.00031192455 -0.030351833 -0.031701237 -0.011663837
000020 f1 87 52 bb f1 8e 70 3c 20 f3 3f bc ff 60 fd bc
       -0.0032124484 0.014682517 -0.01171568 -0.03093004
000030 69 c0 99 bb 1a 1c fe 3c ab 82 63 bc 6f 24 0b bb
       -0.0046921265 0.03101926 -0.013886134 -0.0021231433
000040 f4 94 b4 bb cc ab 35 3b d2 72 56 bc 57 f5 83 3b
       -0.0055109207 0.0027720807 -0.013088899 0.0040270495
000050 64 f6 94 bc 25 df 60 bc ba 7a 0b bc e3 54 bc bb
       -0.018183894 -0.013725077 -0.008513147 -0.005747424
000060 41 51 3d bc 8d 96 55 3b 76 77 db 3b 65 11 b7 3c
       -0.011555017 0.0032590956 0.0066975905 0.022347162
000070 2e fb fc 39 af 30 aa 3b 35 57 70 3a 48 ca fa bb
       0.0004825233 0.005193792 0.00091682683 -0.0076535083

acc_proj.1.running_mean f4 [32]
000000 eb cc cc 3d 23 9f ab bd 80 dc 39 3e fa d0 16 be
       0.100000225 -0.08379962 0.1815052 -0.14728156
000010 b6 a4 d0 bc b6 04 09 be bf 60 0b 3d 26 4c 4c bd
       -0.025469165 -0.13380703 0.03402781 -0.04987731
000020 3d 0a 0f 3e 6a 3b 08 be 43 de 0b 3e aa b0 f5 bc
       0.1396875 -0.13303915 0.13659005 -0.029991467
000030 39 5b 1e be 2b d3 72 bd e5 de e7 3d 8c 93 e6 bd
       -0.15464486 -0.059283417 0.11321811 -0.11258611
000040 07 16 02 3e 37 3c bc 3d 54 62 4b bc 2c 2f 39 3d
       0.12703715 0.091911726 -0.01241358 0.045211002
000050 76 e0 e7 3d 02 ca 40 3d 72 21 b5 bd 5f a9 e3 bd
       0.113221094 0.04706765 -0.0884427 -0.11116289
000060 a5 1e ad 3d ed c6 a5 3d 60 c4 ec bd 50 52 fc bc
       0.084531106 0.08094583 -0.11560893 -0.030800968
000070 9e c8 0b 3e ee d4 05 3e 93 6c af bd 75 bd d3 3d
       0.13650748 0.13069507 -0.08565631 0.103388704

acc_proj.1.running_var f4 [32]
000000 94 69 9c 3e eb 25 6c 3e 34 2d 2a 3e d2 b0 ce 3e
       0.305493 0.2306134 0.16618806 0.40369278
000010 b7 4e a0 3e f9 b8 b9 3e ee c4 63 3e dd 8a f0 3e
       0.31310055 0.36273935 0.22243091 0.46980944
000020 ce e0 c9 3e 62 71 d7 3e 41 20 a1 3e b9 df 72 3e
       0.39429325 0.42078692 0.3146992 0.23718156
000030 bd 5e 83 3e df a1 8d 3e b6 7c 42 3e 33 18 50 3e
       0.25658217 0.2766256 0.18992886 0.20321731
000040 a3 91 82 3e bc 4d 17 3f 8a bd 0b 3f b9 bf 03 3f
       0.25501737 0.5910299 0.5458609 0.5146442
000050 aa 30 69 3e 4d 85 31 3e 41 92 93 3e a7 1e d8 3e
       0.2277247 0.17336006 0.2882252 0.42210886
000060 c3 ad 6b 3e b8 4b 33 3e ae 59 19 3f b0 c8 c6 3e
       0.23015504 0.17509353 0.59902465 0.38824987
000070 b2 ca bf 3e 54 cb 5f 3e 71 58 c3 3e a7 32 aa 3e
       0.37459332 0.21854907 0.38153413 0.3324177

ori_proj.0.weight f4 [32, 3, 8]
000000 f6 c6 01 be fc 94 b0 3d e5 45 64 bc 2e b3 20 bc
       -0.12673554 0.086221665 -0.01393268 -0.009808345
000010 c7 c2 09 be c2 21 0a be 37 73 44 be 7d 0f 3d 3e
       -0.13453208 -0.1348944 -0.19184576 0.1846294
000020 7c 03 32 3e 3e 86 90 3d a8 86 40 be 4e 5a e2 3d
       0.17384142 0.07056855 -0.18801367 0.110523805
000030 48 92 1f 3d 77 92 00 3e 9b 07 b4 bd 75 28 1b be
       0.038957864 0.12555872 -0.08790513 -0.15152152
000040 c6 94 10 bb d4 f3 fc bd 20 b7 35 be 70 ff 57 3c
       -0.0022061332 -0.12351194 -0.17745638 0.01318346
000050 d4 18 96 bc ca b2 25 3d e0 d1 2c be 0c 57 cd bd
       -0.018322386 0.04045371 -0.16876936 -0.100263685
000060 ab 2c e9 bd b0 04 65 3c 0a ce 0d 3e fd de a8 bd
       -0.11385473 0.013978168 0.13848129 -0.08245657
000070 e4 6d 7c 3d 03 c9 35 be d9 a6 42 3c 73 a8 19 be
       0.061628237 -0.17752461 0.0118806 -0.15005665
000080 78 18 de bd dd 2a b4 3d c6 21 1d 3d ad 48 23 be
       -0.10844511 0.08797238 0.038362287 -0.15945692
000090 99 28 24 be 6d 8b 2a bb e5 b1 25 3e b1 82 0f bd
       -0.16031112 -0.0026023046 0.16181143 -0.035036746
0000a0 bf 2e 2f bc 92 88 01 3e a9 fd eb 3d d2 18 1c 3e
       -0.0106922975 0.12649754 0.11522991 0.15243843
0000b0 52 51 d0 bd d7 cf 8c bb c8 64 4b 3e de 38 f0 3d
       -0.101717606 -0.0042972374 0.19862664 0.117295966
0000c0 78 1b c0 bd de e2 29 3e e0 d3 40 3d f3 80 8e 3c
       -0.09380239 0.16590449 0.04707706 0.017395472
0000d0 67 df 47 3e 0c 76 22 be 91 25 15 bd 7c cc 55 3e
       0.19518815 -0.15865344 -0.03641278 0.20878786
0000e0 28 fc 46 3e 3a 49 44 3e 43 a7 0c 3e 97 14 35 be
       0.19432127 0.19168559 0.1373568 -0.17683636
0000f0 7b 63 e7 3b cf b7 39 3e ce 70 34 be 57 b2 dd bd
       0.0070614195 0.18136524 -0.17621157 -0.10825031
000100 c2 24 5c 3e e3 94 b6 3d 29 5e 1a bd 8a be 86 bd
       0.21498397 0.08915117 -0.037687454 -0.06579311
000110 95 5a 6c 3d fc 6e d1 3c 0b 6e be bd 4a ae 21 3e
       0.057703573 0.025565617 -0.09298333 0.15789142
000120 8b f3 34 be 65 ae 53 3e 6e a1 bb bd 98 39 c0 3d
       -0.1767103 0.20671995 -0.0916165 0.09385985
000130 ab c4 88 bc ea c4 45 3e 1d ee 30 3d 3a 76 3a be
       -0.016695341 0.19313398 0.043195833 -0.18209162
000140 47 2b aa bd 62 31 4c bb 2d 9b 17 3e 00 d9 1f 3d
       -0.08309036 -0.0031157364 0.14805289 0.039025307
000150 94 a2 5f bd 70 30 05 3e b4 18 e2 3c 62 d3 1c 3d
       -0.054598406 0.13006759 0.02759967 0.038287528
000160 bc 41 e7 bd 3e 84 53 3e 44 62 4e bd 01 75 0d be
       -0.11291835 0.20655915 -0.050386682 -0.13814165
000170 fb 33 54 3e 46 49 2a 3d a9 08 3d bd ac 7c cb bc
       0.20722954 0.041573785 -0.046150837 -0.024839722
000180 ee f4 a1 3d 2d 5e 03 be 90 54 1b 3e c0 e0 b0 bd
       0.07908045 -0.12828894 0.15168977 -0.08636618
000190 34 cd 3d 3e f1 b0 1a 3e 5d a5 15 3e 76 82 ce 3c
       0.1853531 0.1510656 0.14613862 0.025208693
0001a0 60 da 24 be ed 63 f7 3d a8 fd c1 3d 21 4d c5 bd
       -0.16098928 0.12079606 0.09472209 -0.09633852
0001b0 4b e0 c3 3c f6 dd 4b be b8 0b e9 bd dc 90 65 bd
       0.023910662 -0.1990889 -0.11379188 -0.05604635
0001c0 85 90 25 3d 6c bb 3a be 1c e8 a0 bd 30 a5 03 3e
       0.040421028 -0.18235558 -0.07856771 0.12855983
0001d0 4b 96 20 be 47 f6 87 3c 9d 78 00 3d 78 41 78 bd
       -0.15682332 0.016596926 0.031365026 -0.06060931
0001e0 4d 3a 36 3e 49 2a 44 be 37 7b 2f bd cf 25 43 be
       0.17795677 -0.19156756 -0.042842116 -0.19057392
0001f0 c6 f3 2e be c4 2e be bd 47 83 f9 bc 0e 3b 10 bd
       -0.1708518 -0.092862636 -0.030458106 -0.03521257
000200 a5 97 80 bd ec 76 98 bd 3a cb 46 3d ec 0a a0 bd
       -0.06278924 -0.074445575 0.048533656 -0.07814583
000210 35 f6 65 3d ca 1d 18 bd 27 c8 3c 3e a8 4b 78 bd
       0.056143004 -0.037137784 0.18435727 -0.060619026
000220 1b 7b 1b 3d 42 cb 32 3e d6 f9 7d 3d dd 87 98 bd
       0.0379592 0.17460349 0.06200584 -0.07447789
000230 ab 72 e8 bc b5 b9 82 bd 7a 89 91 3d d8 e9 a2 3d
       -0.02837499 -0.06383077 0.071063 0.079547584
000240 f4 c7 13 be d8 e1 02 3e 0f 8d 42 be a5 54 4b bc
       -0.14431745 0.12781465 -0.18999122 -0.012410318
000250 ac 0e 34 3e 7b 51 17 be 09 51 3c 3e 6c ca 18 bd
       0.17583722 -0.14777176 0.18390287 -0.03730242
000260 f6 c3 0c bd 4b 8f 15 be fa 00 06 be 62 e7 77 bd
       -0.03436657 -0.14605443 -0.1308631 -0.0605234
000270 0b 96 8a 3d 07 1e 0a be d9 37 68 3c bf 20 f9 bd
       0.067669 -0.13488017 0.014173471 -0.12164449
000280 ea 12 16 be e7 c9 91 3c 3f 25 48 3e 7f 22 40 3e
       -0.14655653 0.01779647 0.19545458 0.18763159
000290 66 95 a2 bb ee ef 1e 3c 21 56 7f bd f6 c1 fe 3d
       -0.0049616573 0.009700758 -0.062338 0.12439339
0002a0 58 7f 85 3d da 46 4f 3e b3 5d b2 3d b5 df c9 bd
       0.065184295 0.20241871 0.08709278 -0.09857122
0002b0 35 0d b3 bc e9 07 47 3e 4d 05 38 bc 6b 89 20 be
       -0.021856884 0.19436611 -0.011231733 -0.15677421
0002c0 82 a9 31 bd 2d ce 0e be 33 71 75 bd 69 65 d0 bd
       -0.043374546 -0.13945837 -0.05992241 -0.101755925
0002d0 73 50 1a be f2 b0 22 be 2c 19 59 3e 40 c7 fe 3c
       -0.15069751 -0.15887812 0.21201009 0.03110087
0002e0 65 33 f2 bd 7a 63 13 be ef 96 91 3d 42 14 78 bc
       -0.11826209 -0.14393416 0.071088664 -0.015141549
0002f0 1f c5 dd bd 53 22 ef 3d 31 46 9c bd 7e a4 41 3c
       -0.108286135 0.11676469 -0.076305754 0.011819003
000300 d7 3b 4f 3e ad a9 a6 bd ba df 83 3d 35 2e cd bd
       0.20237671 -0.08137832 0.06439157 -0.10018579
000310 f9 09 1c 3e 1a 3b ff 3c 7b 0a c3 3d 25 aa 38 be
       0.1523818 0.031156112 0.09523483 -0.18033655
000320 4a 5b f3 bd d5 2b 44 3e 76 ab 4b be 73 25 36 be
       -0.118826464 0.19157346 -0.19889626 -0.17787723
000330 d9 9f 1b 3e 0b 0d 2e 3e b2 4a d6 3c 94 23 23 be
       0.15197696 0.16997163 0.026158664 -0.1593154
000340 b8 a1 0e be bd a6 de 3c 18 55 0c bb 9a 4c 06 3e
       -0.13928878 0.027179116 -0.0021413025 0.13115159
000350 6e 51 b1 bd 06 ab 1e be 97 6f 25 3e 9d 3b cf 3d
       -0.086581096 -0.15494928 0.1615585 0.10118792
000360 e3 28 33 be 6d 2f 65 bc 8a d3 48 be e3 ab 9c bd
       -0.17496066 -0.013988358 -0.19611946 -0.07649972
000370 8a 1a 85 bd b9 f5 a0 bd 09 06 67 3c 4c ce 88 bd
       -0.064992025 -0.07859368 0.01410056 -0.06679973
000380 bb bc cd bc 88 71 f4 3d 11 bd 41 3e 80 55 48 3e
       -0.025114408 0.11935717 0.1891978 0.19563866
000390 50 12 d6 bd e5 0e 19 3d 49 ac 83 3c 25 43 14 be
       -0.104527116 0.03736772 0.016073363 -0.14478739
0003a0 21 de c8 3c 4d ad 48 3d 64 12 84 3d 06 83 32 3e
       0.024519982 0.048993398 0.0644882 0.17432794
0003b0 64 8f 00 3e 57 d1 28 3e 7c bf 17 3e f4 14 a4 3d
       0.12554699 0.16486107 0.14819139 0.08011809
0003c0 c2 28 ff bd a4 f9 3b 3e 41 ba 2b be 36 89 09 3e
       -0.12458946 0.18356949 -0.16770269 0.13431248
0003d0 68 45 32 be 34 3d 09 3b d1 13 25 be 3d 2a 0b 3e
       -0.17409289 0.002094102 -0.1612084 0.13590331
0003e0 ed 65 14 bd 9f fd 00 3c 30 69 06 3c 62 71 f7 bc
       -0.036230016 0.007872968 0.00820379 -0.030205432
0003f0 4b 6a 0e 3e ce 24 1a 3e b7 9e 93 3d c4 33 e0 3d
       0.13907735 0.15053102 0.07208007 0.109473735

ori_proj.0.bias f4 [32]
000000 8d ca e9 bd ea 94 8d bc 6e 2d c5 3d b1 c2 08 bd
       -0.114155866 -0.017282922 0.09627806 -0.033388797
000010 8b 1c 12 be 1a 9a 32 be 74 30 c0 bd 54 ae 69 3d
       -0.14268701 -0.17441598 -0.09384242 0.057051018
000020 e0 9d 8b bc 3e 32 0c be d9 1c 8e bd 7c 9e b3 bd
       -0.017043054 -0.13691041 -0.06939096 -0.08770463
000030 57 9d 2d be 34 37 d6 3d 4d 72 b0 bc fd 31 ea 3d
       -0.16954552 0.10459748 -0.021538878 0.11435316
000040 76 29 24 3d a9 61 0f 3e 5d 92 07 be 51 3f 07 be
       0.040078603 0.14002098 -0.13239427 -0.13207747
000050 47 d7 3d be af 5b 44 3e 7a 9f b8 bc ee d9 ed 3c
       -0.18539153 0.191756 -0.022536982 0.029034581
000060 8a b0 82 3d 2e 35 a8 3b 6a 78 64 3d ae 63 8b bd
       0.063813284 0.0051332926 0.0557789 -0.06806122
000070 84 e7 68 bd c0 dc a1 ba a6 e6 59 3d b9 3e d5 bd
       -0.056861416 -0.0012349114 0.05319848 -0.10412354

ori_proj.1.weight f4 [32]
000000 64 43 7e 3f 22 2d 80 3f cf 21 80 3f e9 76 81 3f
       0.9932158 1.0013773 1.0010318 1.0114413
000010 1b 7f 7c 3f 28 5f 7e 3f 65 b9 7d 3f 1f 79 80 3f
       0.9863145 0.99363947 0.99111015 1.0036963
000020 6e 76 7f 3f 10 1c 7c 3f 44 1f 82 3f ba 64 7c 3f
       0.99790084 0.9848032 1.0165792 0.98591197
000030 1d 14 81 3f 50 03 80 3f 91 be 80 3f a7 4b 7d 3f
       1.0084263 1.0001011 1.0058156 0.9894356
000040 7f 85 7e 3f 28 e8 7f 3f 82 79 7e 3f c8 31 7d 3f
       0.9942245 0.9996362 0.99404156 0.98904085
000050 11 27 80 3f 58 00 83 3f fa 6e 7d 3f 12 13 81 3f
       1.0011922 1.023448 0.9899746 1.0083945
000060 6c 43 85 3f 4e fc 7f 3f 7f 3a 80 3f 4f 52 80 3f
       1.04112 0.9999436 1.0017852 1.0025119
000070 15 b1 83 3f 24 68 82 3f 02 14 84 3f 91 a5 7a 3f
       1.0288416 1.0188031 1.0318606 0.97908884

ori_proj.1.bias f4 [32]
000000 7f cf 15 3c 81 95 fc 3c c8 54 4c bb 79 10 75 3c
       0.009143709 0.030833008 -0.0031178463 0.014957541
000010 17 62 2d bc b1 c4 36 bc 4c bc a3 bb e1 b4 76 3c
       -0.0105824685 -0.011155293 -0.004996812 0.015057773
000020 c9 9b 5b bb f3 b3 7f 3c 1c 3a b0 3c 1f 06 62 bb
       -0.0033509603 0.015606868 0.021512084 -0.0034488512
000030 ab 49 c0 3c bb 11 d6 3a ca ab 40 3b 66 6e 07 ba
       0.023472628 0.0016332188 0.002939927 -0.0005166292
000040 78 dd a9 ba c0 66 03 3c 00 47 d5 3b c9 d0 a6 bb
       -0.001295968 0.008020103 0.006508708 -0.005090807
000050 ef ae 3d 3c 5a 6e 37 bc a5 c7 48 bb d0 b2 56 3c
       0.011577352 -0.011195743 -0.0030636576 0.013104156
000060 30 1a 61 3c dd 66 ab 3b da cf 54 bc 71 e3 36 3c
       0.013739154 0.005230768 -0.012989009 0.011162625
000070 64 aa 07 3c 9d 6a 25 3c 51 33 25 3c a0 13 2e bb
       0.00828037 0.010096219 0.010083036 -0.002656199

ori_proj.1.running_mean f4 [32]
000000 1e ee 8b 3d 7a 50 6d 3d e1 97 e6 3c aa ff 59 3c
       0.068325266 0.057938077 0.028148593 0.013305584
000010 d5 49 fe be 7c 75 93 3d 04 7f 81 be d4 10 46 be
       -0.49665704 0.07200143 -0.25292218 -0.19342357
000020 30 9e 0a be 51 14 7b 3e 7a 84 12 3e e4 57 88 be
       -0.13536906 0.24519469 0.14308348 -0.26629555
000030 6b 69 79 bc 1f ae 56 3e fc 19 90 be 2e 5b 05 bd
       -0.0152228875 0.2096486 -0.28144825 -0.03255766
000040 e4 17 a1 bd d7 7f f6 3e bd 77 f9 3d f9 d8 53 be
       -0.07865885 0.4814441 0.121810414 -0.20688237
000050 5a 23 da bc 27 4c 10 3e 9f 11 a7 be 7b 1e 10 3e
       -0.026628185 0.1409155 -0.3263063 0.14074127
000060 0d 57 ed 3c 6b 65 68 3e c6 66 fd bb d0 e0 38 be
       0.028972173 0.22694938 -0.007733199 -0.18054509
000070 3e c7 b1 3d d3 34 63 3e ca 90 1a be 6f 3e a1 be
       0.086805806 0.2218812 -0.15094295 -0.31492946

ori_proj.1.running_var f4 [32]
000000 36 22 37 3e ec b1 f0 3d 52 b8 25 3e ef b3 4a 3d
       0.17884144 0.11752686 0.16183594 0.049488004
000010 69 6b e7 3e cc 7f e0 3e f1 2b ff 3d 79 c7 53 3e
       0.45199135 0.438475 0.12459553 0.20681562
000020 e9 35 91 3d fa fc 17 3f b6 df 0b 3e a0 b2 08 3e
       0.07090361 0.59370387 0.13659558 0.1334939
000030 ba 6d cf 3d 64 29 72 3d 3e 84 99 3e 74 c1 98 3d
       0.101283506 0.059121504 0.29983705 0.07458773
000040 20 d4 56 3e 21 70 ed 3e 47 e5 0b 3f fd b9 e7 3d
       0.20979357 0.4637461 0.54646724 0.11314771
000050 78 65 2a 3e b2 6d 71 3d d0 15 91 3e d3 ba 35 3e
       0.1664027 0.058942504 0.28336954 0.17747049
000060 a8 b6 10 3e 8d e6 86 3e 6a cd c0 3d 31 ac 5c 3d
       0.14132178 0.2634777 0.094141796 0.053875152
000070 c2 93 f7 3d c1 aa ab 3e 5f 47 fa 3d 24 4e a3 3e
       0.120887294 0.33528712 0.12220644 0.31895554

fusion_norm.weight f4 [64]
000000 97 69 81 3f 40 c6 80 3f c2 33 7b 3f 9d e3 83 3f
       1.0110348 1.0060501 0.9812585 1.0303837
000010 9b 3e 80 3f 5c 5a 7b 3f b0 89 81 3f fa 08 77 3f
       1.0019106 0.9818475 1.0120144 0.9649807
000020 59 59 82 3f b8 0e 81 3f 32 25 7a 3f b6 ca 84 3f
       1.0183517 1.0082617 0.97713006 1.0374362
000030 16 89 7d 3f ba a3 84 3f 97 77 80 3f 51 b5 7c 3f
       0.990373 1.0362465 1.0036496 0.98714167
000040 1e 4b 7d 3f d2 35 7f 3f 7a 0b 7b 3f 9c 79 7f 3f
       0.98942745 0.996915 0.98064387 0.99794936
000050 d6 66 7c 3f 6b f4 7d 3f 2c 69 7f 3f 9c 2a 7b 3f
       0.98594415 0.9920108 0.99769855 0.9811189
000060 51 bc 78 3f 2b fe 7b 3f c9 b4 83 3f e2 46 81 3f
       0.9716235 0.98434705 1.0289546 1.0099757
000070 a9 c9 7a 3f 96 f8 7e 3f 7f ec 80 3f 14 6b 79 3f
       0.9796396 0.9959806 1.0072173 0.97429013
000080 45 46 7d 3f 70 0d 7a 3f e5 40 7e 3f 2f e6 80 3f
       0.9893535 0.97676754 0.9931777 1.0070246
000090 3b d7 7b 3f 1a 56 7e 3f a5 00 7e 3f 46 a9 7f 3f
       0.9837529 0.9935013 0.99219733 0.99867666
0000a0 24 92 7e 3f 5a a6 79 3f 54 00 81 3f fb e6 7c 3f
       0.9944174 0.9751946 1.0078225 0.9878995
0000b0 04 da 80 3f b1 25 80 3f 6e b5 80 3f 74 5c 7f 3f
       1.0066533 1.0011503 1.0055368 0.9975045
0000c0 b0 a2 7c 3f 44 b2 7f 3f ef 04 7d 3f 0a ac 7a 3f
       0.9868574 0.99881387 0.98835653 0.9791876
0000d0 11 04 7e 3f 61 36 7f 3f e9 e8 7d 3f db 0e 7d 3f
       0.99224955 0.9969235 0.9918352 0.9885079
0000e0 28 e3 84 3f 80 ca 7d 3f bb 3d 7f 3f b0 83 7f 3f
       1.0381823 0.99137115 0.9970357 0.99810314
0000f0 bb b0 83 3f 04 e0 80 3f 0b f7 84 3f 4e cf 7b 3f
       1.0288309 1.0068364 1.0387892 0.98363197

fusion_norm.bias f4 [64]
000000 d1 56 81 3b 30 04 80 36 b2 c5 20 3c 38 e2 a8 bc
       0.003947117 3.8151848e-06 0.009812759 -0.020615682
000010 4e 93 a6 3b d1 6d 17 bc 54 22 e8 bb 10 77 cc bb
       0.005083478 -0.009242491 -0.0070841704 -0.0062397793
000020 fd 06 fa ba 68 b8 8e 3b fd 12 bc bb 8f f4 1b bb
       -0.0019075569 0.004355479 -0.0057395683 -0.0023796891
000030 b3 65 32 bc 44 0b 93 3b 75 44 22 bb 2e 7d 47 3b
       -0.010888505 0.004487427 -0.0024760042 0.0030439603
000040 8b f8 32 3b 81 fe 37 bb 51 c6 0f bc 19 9c a6 ba
       0.0027308788 -0.002807528 -0.00877531 -0.0012711316
000050 c3 0e 38 bc c9 cf f4 bb c7 f5 48 3a e2 46 1b 3a
       -0.011233988 -0.007471059 0.0007666018 0.0005923343
000060 d3 b2 03 3c 1e bc 93 3b 39 64 21 bb b4 ba f5 3b
       0.0080382405 0.0045085093 -0.0024626388 0.0074990634
000070 76 af 39 b9 76 87 a2 ba 6c 69 15 3c 3f 21 51 bb
       -0.00017708339 -0.001239999 0.009119373 -0.0031910685
000080 30 a2 9d ba f6 51 87 3c 4b c2 40 3b e2 8d 41 3c
       -0.0012026485 0.016518574 0.0029412683 0.011813613
000090 4e 39 23 bc 9f f0 44 bc f4 ea a2 bb c3 61 05 bb
       -0.009962393 -0.012020259 -0.0049718563 -0.002035246
0000a0 d4 5d 1e ba 59 e1 39 3b 81 ba 21 3c 72 30 60 bb
       -0.0006041203 0.0028363077 0.009871126 -0.0034208563
0000b0 1b 6b 00 3c 01 3e c1 ba 5e a7 bc 3a 31 b7 a4 bb
       0.007838036 -0.001474321 0.0014393141 -0.005026721
0000c0 75 94 93 bb 8a 9c 3f ba ff d4 c9 3a 64 a8 20 3a
       -0.0045037814 -0.0007309398 0.0015398561 0.0006128608
0000d0 08 f6 46 3b ce a9 48 3c 70 13 f6 bb db 04 73 3c
       0.0030359048 0.012247516 -0.0075096413 0.014832701
0000e0 81 73 6b 3b 92 f5 b0 ba 2f e0 21 bc 7e 2d 12 3a
       0.0035927 -0.001350092 -0.00988011 0.0005576237
0000f0 e1 9e 28 bc 3e 69 7b 3b bb 1b 5d bc a7 9d e6 bb
       -0.010291786 0.003836229 -0.013495381 -0.0070378366

encoder.layers.0.self_attn.in_proj_weight f4 [192, 64]
000000 34 4b e4 bd 1d 33 e5 bd b6 a5 04 be a5 75 85 bd
       -0.11147156 -0.1119139 -0.12953839 -0.065165795
000010 f5 3f 99 3d 70 9a ca bd 98 35 71 3d 9f 29 6d bb
       0.07482902 -0.09892738 0.058889 -0.0036188138
000020 e4 b3 49 bc b7 91 87 bd 8f 5b db bd c7 97 a0 bd
       -0.012310956 -0.0661959 -0.10710823 -0.07841449
000030 f3 87 4e ba c0 bb b9 3d 59 e6 4d bd 38 b6 42 3d
       -0.00078785344 0.090690136 -0.050268505 0.04753706
000040 21 fc 85 3d 4d 1b b3 3d b5 0a 15 be 5b d8 66 bd
       0.065422304 0.087454416 -0.14554866 -0.056358676
000050 06 b5 e3 bb b8 24 0b be 05 4c c5 bc e8 42 1c 3e
       -0.00694907 -0.13588226 -0.0240841 0.15259898
000060 6e bb 45 be 4d 03 c6 3c 41 ae 43 3c f6 e6 bb 3d
       -0.1930978 0.024171496 0.011943401 0.09174912
000070 9b ad 86 3d ea a9 82 bd cb c5 9b 3d aa 9b 14 be
       0.06576081 -0.06380065 0.076060854 -0.14512506
000080 59 13 0b bd ec e6 3c be 9b 53 18 3e b8 7c ba bd
       -0.033954 -0.18447465 0.14875643 -0.091058195
000090 01 37 36 3e 80 96 46 be ee 32 ab 3d 34 69 00 be
       0.1779442 -0.19393349 0.083593234 -0.12540132
0000a0 8c 84 e5 3d e0 56 87 bd ff 22 d4 3d 51 d1 9b 3d
       0.11206922 -0.06608367 0.103582375 0.07608283
0000b0 b0 56 42 bd 3b be 19 bd 56 fd d2 3d 98 2e 6a 3d
       -0.047445953 -0.037534934 0.10302226 0.05717334
0000c0 a1 1f d6 3d ce 29 dc bd 8c 82 57 bd b3 42 a9 3d
       0.104552515 -0.10750161 -0.052614734 0.08264675
0000d0 80 df c0 bd d0 65 18 3e b5 f3 66 bd 86 65 b8 3d
       -0.09417629 0.14882588 -0.05638476 0.09003739
0000e0 ce 84 9b 3d e9 fb 0c be b1 c0 2c 3e 72 7c 2b 3d
       0.0759369 -0.13767971 0.16870381 0.041866727
0000f0 37 2c ab bc d7 31 2f bd 1d 38 00 be 83 ce b2 bc
       -0.020895107 -0.04277214 -0.12521406 -0.021826988
000100 9d 87 72 3d ee b0 04 be 9a 4c 6d 3d 87 ad ec 3c
       0.059211362 -0.12958118 0.05793438 0.028891338
000110 55 22 24 bd 4b 33 9c 3d 16 f5 20 3e 9a 7d a0 3d
       -0.040071804 0.07626971 0.15718493 0.078364566
000120 35 dc 60 bd 07 f8 21 be 9a 2e a0 bd 2d 7d 8c bd
       -0.054897506 -0.15817271 -0.078213885 -0.06859813
000130 5a 38 44 3d 7a ef a8 bd b5 51 51 bd 30 4d 45 3e
       0.047905304 -0.082488015 -0.051103313 0.19267726
000140 a2 3c 08 3e 4a 4a 16 be ea e6 e5 bd 07 22 41 be
       0.1330438 -0.14676777 -0.11225684 -0.18860637
000150 eb e4 02 3e 41 5b db bc 75 49 ef bd 73 bc 3c be
       0.12782638 -0.026776912 -0.11683933 -0.18431263
000160 ca 9e 63 bd 9c 23 70 3c 67 74 77 bb ae 1f 15 be
       -0.055571355 0.014656927 -0.003775859 -0.14562866
000170 fe 11 95 3d ba 85 cc 3d 8b eb 0a 3e 91 3c bf 3d
       0.07278822 0.09986444 0.13566415 0.09337724
000180 3b 27 93 3d da 7b 50 bd 5f 40 4e be d2 41 2d be
       0.07185217 -0.050899364 -0.20141743 -0.1691964
000190 f7 59 88 bd c1 00 26 3e b6 70 9b 3d 96 e7 c6 bc
       -0.066577844 0.16211225 0.07589857 -0.02428035
0001a0 f3 2f 7a 3c bc 03 9a 3d a2 8f 21 be 70 e6 1f bd
       0.015270221 0.075202435 -0.15777448 -0.03903812
0001b0 94 56 b2 3d 44 8d 6b bd 45 55 9f bd c4 c6 0d 3e
       0.0870792 -0.05750777 -0.07779936 0.13845354
0001c0 56 cd 6e be e1 80 57 3d fd 1f 28 3e 7d eb 9a bd
       -0.23320517 0.052613143 0.16418453 -0.07564447
0001d0 6a 4b 7b bd c6 e1 6a 3d fd 5e b1 3d c5 46 3c 3e
       -0.061351217 0.05734422 0.08660696 0.18386371
0001e0 00 9f 0e bc 29 6b 85 bd ec cf 3f be a7 ec 6d bd
       -0.008704901 -0.0651458 -0.1873166 -0.058087017
0001f0 c2 a4 7d bd 68 d4 50 bd d6 c7 cd 3d 93 cd 0c be
       -0.061924703 -0.050983816 0.10047881 -0.13750295
000200 0f 55 05 3d a6 15 24 be 4d 34 d3 3d de 2b 9a 3c
       0.03255182 -0.16023883 0.1031271 0.018819746
000210 e9 0e 81 3d 31 48 c9 3d 63 54 13 be 2a f6 9b bd
       0.06301672 0.098282225 -0.1438766 -0.076153114
000220 34 d3 87 bd 39 2c 41 3e 65 7e 0d bd 51 ae 1a be
       -0.06632081 0.18864526 -0.034544367 -0.15105559
000230 67 b7 31 be c3 ac 05 bb d6 52 25 3d 36 45 02 be
       -0.17355119 -0.0020397163 0.0403622 -0.12721714
000240 02 bf 1e 3e b1 0d 87 3d 45 d7 e7 bd 76 52 40 be
       0.15502551 0.06594408 -0.11320356 -0.18781456
000250 ab 7e 43 3e 1c 74 22 bc 9e 09 46 bd bc 69 b2 bc
       0.19091289 -0.009915378 -0.048349015 -0.021778934
000260 b2 ab 08 3e 6f 9b 1a 3d 53 19 d6 3d b5 84 c1 3d
       0.13346747 0.03774589 0.10454049 0.0944914
000270 b0 64 2c 3e 18 3d 8c 3d 43 f6 23 be 16 21 a0 3d
       0.16835284 0.0684759 -0.1601191 0.07818811
000280 f7 d0 4b 3e a4 db 6e 3e 5d 94 72 bd 0f 59 6f be
       0.19903933 0.23325974 -0.05922352 -0.23373817
000290 f9 98 be bb 25 82 2d 3e 9b 63 5b bd 14 24 84 3d
       -0.0058165756 0.16944177 -0.053561788 0.06452194
0002a0 5b 15 d7 bd 11 f1 ef 3d 36 55 03 be 69 03 1d 3d
       -0.1050212 0.11715902 -0.12825474 0.03833333
0002b0 0b b7 ae bb db 56 b1 3d 85 ec 16 be 78 12 35 3c
       -0.005331879 0.086591445 -0.14738663 0.011051767
0002c0 88 0f 5c 3d 81 9b f9 3d af 49 de 3c 98 20 df bd
       0.05372575 0.12187863 0.027134744 -0.10894889
0002d0 56 6a df bd a3 f4 50 3d 22 ea 67 3d 0c 79 6f 3d
       -0.10908954 0.051014554 0.05661977 0.05846505
0002e0 c5 6b 66 3e cf eb c3 3d 80 be aa bd 57 23 e8 3c
       0.22502048 0.09566461 -0.08337116 0.028337164
0002f0 b9 3d 12 be 70 15 bc 3d e9 8e 1f 3e d1 a3 26 be
       -0.14281358 0.091837764 0.1558186 -0.16273428
000300 5a ad c5 3c b3 4b 99 3d 14 a2 11 be d7 e0 81 3d
       0.024130512 0.074851416 -0.14221984 0.06341713
000310 75 39 3b be 7d d1 44 bd 73 f3 3a 3d 96 2a 8b 3d
       -0.18283637 -0.048051346 0.045642328 0.06795232
000320 f1 d4 11 be 06 c0 bf 3c 7b 7f f5 bd a5 42 8f bb
       -0.14241387 0.023406994 -0.119872056 -0.0043719583
000330 55 c1 a2 bd 75 0a 2b bc f3 d7 78 3d 51 ab 0b 3e
       -0.079470314 -0.010439505 0.06075282 0.13639571
000340 02 94 21 be 6c c2 54 3d 47 42 10 3e a2 67 66 bd
       -0.15779117 0.051943228 0.14087783 -0.056251176
000350 96 4e a2 bc 17 db 13 be 7b e4 62 bd 8a bf d5 bb
       -0.019812863 -0.14439045 -0.055393677 -0.0065230774
000360 53 69 4e 3e ac 3f 46 bd e0 ec 93 3d 36 fa 59 bc
       0.20157366 -0.048400566 0.07222915 -0.013304284
000370 9a 8d 17 be 90 4c 09 bd 8d f2 b9 bc da fc f0 bd
       -0.1480011 -0.03352028 -0.022698665 -0.117669776
000380 e8 cf 6e be a5 71 f8 bc 0c 0b 24 3c 47 55 54 bd
       -0.23321497 -0.030327627 0.010012399 -0.05183914
000390 c3 39 44 3e 7b 7b 10 bc e5 2c b5 3d f2 eb f2 bc
       0.1916266 -0.008818503 0.088464536 -0.029653523
0003a0 db f9 f1 3d f8 f9 ea bd e6 58 dc 3d 11 07 cc 3c
       0.11815234 -0.11473459 0.107591435 0.024905713
0003b0 0a 7a a9 bd 5b 0d bb bd 47 f0 df 3d e9 a9 ec 3c
       -0.0827523 -0.09133407 0.10934501 0.028889613
0003c0 ae c6 0c 3e 33 bf 4b bd 33 da bf bd e3 ed 23 3e
       0.13747665 -0.04974289 -0.0936779 0.16008715
0003d0 0c ca 8b bd 64 99 75 3d ea b1 1d 3e 45 48 30 3d
       -0.06825647 0.059960738 0.153999 0.04303767
0003e0 9b f9 18 bc c7 9e 3d 3d 13 1b 59 3e 83 d8 5d 3d
       -0.009336854 0.046294 0.21201734 0.05416156
0003f0 8e 9b f3 3d 95 90 0a be b1 d2 89 bd c1 77 69 3e
       0.11894904 -0.13531716 -0.06729639 0.22799589

encoder.layers.0.self_attn.in_proj_bias f4 [192]
000000 e2 6e 30 bc 34 a8 9f 3d 97 05 95 3c 14 6d 96 bc
       -0.010768624 0.07795754 0.018191142 -0.01836256
000010 6e 3a 61 3c f5 4a d0 3c 11 61 df ba ee 80 77 3c
       0.013746841 0.025426367 -0.0017042478 0.015106423
000020 4d 4b bf bc fc d0 e9 3c 17 0e 99 3a 07 85 c4 3c
       -0.023351336 0.028542034 0.0011677173 0.023989214
000030 14 94 ee ba 07 ca 8f bc 51 84 48 bc 84 fd 81 bc
       -0.001820209 -0.017552389 -0.012238578 -0.015867956
000040 34 f6 c9 bc 9a 8b f8 bc 93 f0 4e 3c 19 37 c8 bc
       -0.024653532 -0.030340005 0.0126306 -0.024440335
000050 53 c0 e2 3c 7d 68 05 3c 68 8c 97 3d 33 14 89 bd
       0.027679598 0.008142588 0.07399827 -0.06693306
000060 63 2d 87 3b a5 ca 1e 3c a3 da e9 3c 8b e2 d3 3c
       0.0041252836 0.009691869 0.028546637 0.02586486
000070 53 5a 9f bc 98 a5 76 bb 46 d4 4e 3c d4 e4 aa bc
       -0.01945225 -0.0037635323 0.012623852 -0.020861067
000080 ae 26 8e 3d 98 26 85 3d 67 8c 3a bd df 79 c6 bd
       0.06940971 0.06501502 -0.045544054 -0.09691214
000090 c8 b8 82 39 94 0f 84 bd 9b f3 50 bd 73 c4 ae bd
       0.00024933205 -0.06448284 -0.05101357 -0.085335635
0000a0 a9 74 ba bc be d8 80 bd ca cf e4 3a 47 81 e0 3d
       -0.022760706 -0.0629134 0.0017456945 0.10962158
0000b0 26 31 c3 3d 42 4d 31 3c 4a 12 57 3c ac e5 3c bd
       0.09530859 0.010821642 0.013126919 -0.04611747
0000c0 9a 19 d5 bc 81 f1 fb bc bb 57 8b bd dc 62 f8 3c
       -0.026013184 -0.030754806 -0.06803843 0.030320577
0000d0 a1 73 c6 3b 62 81 29 b9 9f 0c 62 ba 57 df 44 bd
       0.0060562645 -0.00016165295 -0.00086230965 -0.048064556
0000e0 e6 9c 55 3d 36 cc 32 bd b7 d9 6a 3b d4 9d 35 3d
       0.052151583 -0.043651782 0.0035835335 0.04433997
0000f0 05 28 37 3d 57 c6 80 bc e8 09 1c ba 6e 03 88 bc
       0.0447159 -0.015719576 -0.0005952404 -0.016603198
000100 c0 64 1e bb 00 cd d0 3b 05 30 f4 39 2d 21 17 bb
       -0.0024168938 0.006372094 0.00046575084 -0.0023060546
000110 68 cc 9c 3b cb 27 17 39 e8 2b 60 ba 29 92 f8 3a
       0.0047851093 0.00014415306 -0.00085514644 0.0018964458
000120 2d e1 57 3a 3a 5e a7 3b b3 bf 25 bb 24 96 7e ba
       0.0008235153 0.005107668 -0.0025291264 -0.0009711704
000130 1d 02 9d 3a 48 63 38 ba 0c 20 ae b9 ec e4 87 3b
       0.0011978779 -0.0007033837 -0.00033211743 0.0041471627
000140 7e b7 0f bb 3d 9f 0a bb e1 f8 b7 bb 7b 57 84 bb
       -0.0021929438 -0.0021152042 -0.0056143855 -0.004038749
000150 da 3a 20 3b ba 84 8b ba 5f 86 99 3b 40 b4 17 ba
       0.002444914 -0.0010644414 0.0046852077 -0.0005787052
000160 02 a9 14 3b 60 96 29 3a e5 3b 1c 3c 5f ff d1 3a
       0.0022683744 0.0006469246 0.009535764 0.0016021541
000170 e3 52 53 3a c1 ec f7 3b 90 0c 2f bb 14 cb 48 3b
       0.00080613623 0.007566065 -0.0026710369 0.0030638622
000180 a5 d2 06 bb d9 ba b1 bb ee 55 e5 3a 74 a1 fc 3b
       -0.0020572331 -0.0054238853 0.0017496923 0.0077096764
000190 cc 11 39 bb b4 43 08 3c 13 cf 99 3b 44 b9 bd 3b
       -0.0028239368 0.008316923 0.0046938746 0.0057899076
0001a0 42 9a 63 39 0d aa 1b 3b e5 18 ad bb 23 da dd bb
       0.00021705872 0.0023752481 -0.0052825087 -0.0067703887
0001b0 01 3a c0 bb 5b 5e 2d 3a 90 80 d0 bb f0 48 72 3b
       -0.0058662896 0.00066134863 -0.006362982 0.0036969744
0001c0 05 75 c7 bb 5a 7b b6 bb 75 50 05 bb 89 a7 29 39
       -0.006086948 -0.005568904 -0.0020342146 0.00016179508
0001d0 57 bd a7 3b b9 2a 12 3b a8 fc be bb 42 dc f3 ba
       0.0051190066 0.0022303297 -0.005828459 -0.0018605071
0001e0 99 01 52 3b 5d 8a 0e bb 68 e7 69 bb 6c 36 18 3b
       0.003204441 -0.0021749951 -0.0035690907 0.0023225797
0001f0 61 52 56 3b 24 fb d1 3a fe 32 08 3b 36 72 70 bb
       0.003270291 0.001602028 0.0020782347 -0.0036689169
000200 64 0a dd ba 83 ed 3d 3c 1d 24 a6 3a 77 a4 62 3b
       -0.0016864059 0.011592272 0.0012675558 0.0034582892
000210 e6 f0 71 3c 5b 3a dc bb 1f b5 0a 3b f7 c6 94 bb
       0.014766907 -0.0067208237 0.0021165085 -0.00454032
000220 95 fd 33 3b f6 2f ef bb b4 1d 0d bb ca d1 5a 3a
       0.002746438 -0.0072994186 -0.0021532597 0.0008347301
000230 d7 b7 8e 3b c8 aa 2c 3b da 50 24 bb 7a c9 9d bb
       0.0043554115 0.002634691 -0.0025072605 -0.0048152776
000240 76 ac ad 3b 9e 0c 79 ba 8d ad 0f 3c a5 e8 32 bb
       0.0053001 -0.00095004763 0.008769405 -0.0027299311
000250 95 25 eb 3b 10 e9 aa b9 03 0a 66 39 7b 61 b1 bb
       0.007176111 -0.00032598572 0.00021938239 -0.005413232
000260 cb f3 17 bb 78 1b c3 3b b1 e0 d0 3b b3 a1 f2 3a
       -0.0023186083 0.0059542023 0.0063744416 0.0018511325
000270 f5 cd 01 bb 3e a1 71 3b c2 24 a1 bb 0f 6c 3e bb
       -0.0019806598 0.003686979 -0.004917712 -0.0029056107
000280 e3 4f 16 3c f7 2a de b9 b6 d2 87 3a ba 11 eb 3b
       0.00917432 -0.0004237515 0.0010362479 0.007173744
000290 d7 7a 93 bb a1 a3 7d b7 48 e3 d5 3b be 25 c2 38
       -0.0045007276 -1.5118073e-05 0.006527338 9.257671e-05
0002a0 8c 2b 90 bb b8 fd 11 3b 20 ce f4 3b 89 6d d7 3b
       -0.0043997224 0.0022276472 0.007470861 0.006574337
0002b0 e0 a1 cd bb 9d b4 a1 bb a4 3c 03 3b 0e 02 8a ba
       -0.0062754005 -0.004934861 0.0020025158 -0.0010529177
0002c0 c6 d3 0c 3b 26 6e 29 3c 4e 98 1a 3c 53 f8 49 3c
       0.0021488531 0.010341203 0.009435726 0.0123272715
0002d0 de 46 45 3b 09 88 1b bb 70 a4 cf ba ab 6f 14 3b
       0.0030102055 -0.0023732206 -0.0015841853 0.0022649567
0002e0 b1 b5 05 bb 95 b5 c1 3b a6 15 aa ba c0 bc 32 3b
       -0.0020402486 0.005911539 -0.0012976422 0.0027273148
0002f0 b4 83 8f ba 44 0b ed 3a c1 44 93 ba ea 71 d6 bb
       -0.0010949285 0.0018085022 -0.00112357 -0.0065443413

encoder.layers.0.self_attn.out_proj.weight f4 [64, 64]
000000 59 20 56 bd 5a 03 98 bd f8 e3 ca 3d 88 74 51 bd
       -0.052276943 -0.07422514 0.09906763 -0.051136523
000010 6e b6 a5 3d a5 e4 4e bd 22 e2 cf 3d ed 9d 5e 3d
       0.08091436 -0.05051102 0.10150553 0.05434983
000020 8a 8e 15 3d 33 68 b4 3c 2a 33 00 bd ee 14 c0 bd
       0.03651289 0.022022342 -0.031298794 -0.09378992
000030 ce 67 e9 3d 4b d0 9c bc 0d 4a c2 3c 9c f7 d3 3d
       0.11396752 -0.01914229 0.02371695 0.10349962
000040 07 d4 df 3d 74 40 72 3d 14 eb a2 3d 5d 64 b4 bd
       0.10929113 0.0591435 0.07954994 -0.08808205
000050 73 b6 67 bd a2 0e 9b bb 33 5b c0 3d d0 cf 0e bd
       -0.05657048 -0.004731969 0.09392395 -0.034866154
000060 c4 ae 78 3d b6 f7 6c bd 5a ea 8f bd 6e 81 82 3d
       0.060713544 -0.057853423 -0.07027121 0.06372343
000070 56 b2 db 3d 67 cd 24 3d 61 6d 3b bd 0c 08 ec 3b
       0.10727374 0.04023495 -0.04575861 0.0072031077
000080 cd 8d ac ba 18 b2 a0 3c e7 bb 71 3d 85 a9 94 3d
       -0.0013164819 0.019616172 0.05901709 0.07258896
000090 8a 9b 03 bc c4 72 ad bd f3 2d 07 3a 58 d5 4c bd
       -0.008032689 -0.084691554 0.0005156688 -0.050008148
0000a0 94 ce fd bd ed 58 e7 bd a6 45 b3 3d 4f 0d 2b 3d
       -0.12392917 -0.11296258 0.08753519 0.04176074
0000b0 3f fd 09 3e 93 ee 08 be ed fb aa bb c8 4a 89 3d
       0.13475512 -0.13372259 -0.00521802 0.067037165
0000c0 8f 45 0b 3e 6e d6 3a 3c f5 d2 b9 3d b6 0f e7 bd
       0.13600753 0.011403663 0.0907344 -0.112822935
0000d0 8e 5e ea 3d e6 c2 88 3d ed 31 9a 3d 7b ac 7b bc
       0.11443816 0.06677799 0.07529054 -0.015360947
0000e0 25 3b c3 3d b7 3f 95 3d ca 02 ae bd 4f ae 20 3d
       0.09532765 0.07287543 -0.08496626 0.039228734
0000f0 78 d8 0e bd 08 0f b1 bd cb 84 af bc bb 3c b0 bd
       -0.03487441 -0.08645445 -0.021425625 -0.086053334
000100 2a 01 3a bc 2a bb bd 3c d5 8f 01 be b0 1e cb bd
       -0.011352817 0.023160536 -0.12652524 -0.099179626
000110 13 f4 5f 3b f1 03 c0 3c 27 59 92 bc 83 ed 4b bd
       0.003417258 0.02343938 -0.017864777 -0.049787056
000120 8d 67 8c bd 24 a8 37 3d a6 d4 c8 bd 3b 89 d8 bd
       -0.06855688 0.044838086 -0.098061845 -0.1057305
000130 48 9c 54 bd f2 74 3e bd b4 97 3d bc 18 69 94 bd
       -0.051906854 -0.046498246 -0.011571813 -0.072466075
000140 34 f2 0a bd c4 8f dc bc 59 8f aa 3d 27 bd b1 3d
       -0.03392239 -0.026924022 0.08328123 0.08678656
000150 5b 96 d5 3c 57 7e f8 bc 8e df 96 3d 5f b2 cd bc
       0.026072672 -0.030333681 0.073668584 -0.025109468
000160 73 af 07 3c ab 1c 98 bd c0 67 14 bd aa 85 3d bd
       0.008281576 -0.07427343 -0.036231756 -0.04627005
000170 01 c3 de 3d 6f 7b b9 3d 7f d6 8b bd ac 96 31 3d
       0.10877038 0.09056746 -0.06828021 0.043356583
000180 6f 13 d2 3d a7 f5 4f 3d 7e 94 ce 3d fb 7d 9c 3d
       0.10257613 0.05077138 0.100869164 0.07641216
000190 2e c8 ae bd ce f2 a6 3d 1a 39 b4 bc e0 ed cb 3d
       -0.08534275 0.0815178 -0.021999884 0.099574804
0001a0 47 79 a2 3c 44 bf 53 3c b1 c3 02 bd 5f ae d9 bd
       0.01983322 0.012924019 -0.031924907 -0.10628962
0001b0 1e 21 a1 3b 8f b6 c8 3d 50 dc f6 3d 5e a8 d6 3d
       0.004917278 0.09800445 0.1205374 0.10481332
0001c0 b8 04 15 bc fc 4a d5 3c e4 a7 00 3e cd bd b9 3d
       -0.009095363 0.026036732 0.12564045 0.09069405
0001d0 95 c2 12 3d 86 f8 b9 3d 3b 62 2d 3d 2e 44 83 3d
       0.0358301 0.09080605 0.042330008 0.064094886
0001e0 cf a8 1e bd 96 4d ad bd 95 b1 b0 bd 85 16 a1 bc
       -0.038735207 -0.08462064 -0.08627621 -0.019664058
0001f0 41 8b 34 3d 22 81 82 3d aa 31 88 3d af 7b 30 bd
       0.044078115 0.063722864 0.06650098 -0.043086704
000200 25 92 eb bc 93 a9 8f bd 3c 93 23 3d 5e cb 8c bc
       -0.02875621 -0.070147656 0.039935336 -0.017186817
000210 52 7e af bd ce 99 b5 bd 5b 3c 2f 3d 33 1e e9 3b
       -0.085690156 -0.088672265 0.04278217 0.0071141957
000220 5a 0a 8f 3c 05 25 cc bd c4 ea 28 bd e3 12 96 bc
       0.01746099 -0.099679984 -0.041239515 -0.018319553
000230 ea fd d9 3c 27 61 19 3b a5 fc 4c 3d 81 39 12 bd
       0.026610333 0.0023403855 0.050045628 -0.03569937
000240 2c 37 eb 3d a7 49 c9 bd e3 9d db bd d1 9b 24 bd
       0.114851326 -0.09828501 -0.10723474 -0.04018766
000250 1e 16 a7 bc 53 55 ab 3c 0d 8d 16 bd d9 5c ed bd
       -0.020396288 0.02091471 -0.03675561 -0.11589975
000260 91 5e cd 3d 24 dc ae 3c 11 f5 af bd ec 28 ce bd
       0.10027803 0.021345206 -0.085916646 -0.10066399
000270 9c 22 bf 3d 96 45 87 3d c9 e0 d4 3d 46 32 8e bd
       0.09332773 0.06605069 0.10394437 -0.06943183
000280 78 c7 7c 3d 3c c7 07 3c 64 f8 d6 3d 68 82 d9 3d
       0.061713666 0.008287247 0.104965955 0.10620576
000290 be b1 d6 bd ca e5 dc bd eb 75 d3 3d ae e8 cf bc
       -0.104831204 -0.10786016 0.103252254 -0.025379505
0002a0 bc 3b fe bd fd 54 73 3d a2 85 c7 3d 20 3f 99 3d
       -0.12413737 0.059407223 0.09742285 0.07482743
0002b0 cc 06 45 3d 84 ce e4 bd b3 7e 1b 3d 0f 7d c2 bd
       0.048102185 -0.11172202 0.037962627 -0.09496509
0002c0 03 ac e3 3d de fc df 3d d2 52 fc bd 02 d1 98 3d
       0.11116793 0.109369025 -0.12320484 0.0746174
0002d0 48 56 66 bd 8a df aa bd f1 a6 a9 3d 77 d7 b0 3a
       -0.056234628 -0.08343418 0.08283795 0.0013491948
0002e0 47 f9 67 bd 68 0d af 3d 4b 6c 8c bc dc a5 c8 bd
       -0.056634214 0.08547479 -0.017141482 -0.0979726
0002f0 b3 b8 94 3d 8d 9d 20 bd bf 5d e9 bd 88 47 2e 3d
       0.07261791 -0.039212752 -0.11394834 0.042548686
000300 ea 42 a5 3d 4e 8a 3d 3d cd 3d 22 bc b8 f0 9c 3d
       0.080694035 0.046274476 -0.00990243 0.07663101
000310 5c e3 d1 bd d5 5e 89 3d 9d 0b 91 3d 03 59 58 3d
       -0.102484435 0.06707541 0.07082293 0.052819263
000320 a6 ed c9 bd 56 65 95 bd 23 2c c3 bd ed c2 42 bd
       -0.09859781 -0.07294719 -0.09529903 -0.047549177
000330 65 f5 d3 bd 32 1e 04 3e a3 db 1c 3d a6 6c b6 bd
       -0.1034954 0.12902144 0.0382954 -0.08907442
000340 63 52 a9 bb d3 12 b6 bd 16 66 93 bd 83 29 d6 bc
       -0.005167292 -0.08890309 -0.07197206 -0.026142841
000350 23 c4 a6 bd e0 f5 7e bd a2 0d 9e 3d e6 d3 c0 3d
       -0.08142879 -0.062246203 0.07717444 0.094154164
000360 88 e0 3a bd b3 e4 66 bd 0a 0c a6 39 87 24 cb bd
       -0.045624286 -0.05637045 0.00031670957 -0.099190764
000370 ea ae bf 3d 74 a3 04 be d5 96 62 bd 54 05 45 3d
       0.09359534 -0.12952977 -0.055319626 0.048100784
000380 f6 b9 8e 3d 0a 5b 41 3d be 84 12 3d db f6 a9 bc
       0.06969063 0.047205962 0.035771124 -0.020747593
000390 88 13 89 bd 0f a1 23 3d 97 32 41 3d 2c aa fb 3d
       -0.066931784 0.03994852 0.047167387 0.12288317
0003a0 51 c8 d7 3c 82 44 11 3d f2 0b a1 3c be c1 e8 bd
       0.026340635 0.035465725 0.019659016 -0.113650784
0003b0 12 d8 8b 3d b4 1a a2 bd f0 ad e4 3d 82 89 bb bd
       0.068283215 -0.079152495 0.111659884 -0.09157087
0003c0 d0 55 9f bd 1f c1 ab bc 18 6f 58 bd f5 65 b3 3d
       -0.07780039 -0.02096611 -0.052840322 0.08759681
0003d0 d1 65 51 3d 81 ed 86 3d a4 6f a3 bd 49 a8 56 3c
       0.05112249 0.06588269 -0.07980278 0.013101646
0003e0 22 19 a3 3d ce ca e4 bd d2 13 ef 3d 4a 8c 57 3d
       0.07963778 -0.111714944 0.11673702 0.052624024
0003f0 2e d6 4a 3d 26 16 d0 bd e0 a2 3a bd d6 d7 cf bd
       0.049520664 -0.101604745 -0.045565486 -0.10148589

encoder.layers.0.self_attn.out_proj.bias f4 [64]
000000 22 7d 28 3b a1 14 b3 3b 31 6a e7 3b 86 02 cb bb
       0.002570935 0.0054651056 0.0070622195 -0.006195369
000010 db e5 f4 ba 76 41 c9 bb 00 fe 0a bc d9 24 c5 bb
       -0.0018684225 -0.0061418368 -0.00848341 -0.0060163555
000020 ac a4 01 3b 7f 5e 35 3c 58 fc 80 bb ae 12 81 3b
       0.001978199 0.011069893 -0.0039363317 0.0039389944
000030 f9 ae 24 bc bc 3b 80 3b 04 8b 82 bb 3d c6 5e 3b
       -0.010051482 0.003913371 -0.003983857 0.003399267
000040 5f 86 89 3b 2d 6d a1 3a 8b 64 dc bb 5b b3 85 ba
       0.0041969265 0.0012315862 -0.006725853 -0.0010200547
000050 58 bc 86 bb b9 87 53 39 6b 74 44 3c 85 2f 97 3b
       -0.004111808 0.00020173089 0.011990647 0.004613819
000060 74 df ba 3b d1 a3 0b 3b 5b 2a ce ba ae 06 d2 3b
       0.005702907 0.002130736 -0.0015729176 0.0064094877
000070 ac 9b 80 b9 ef 14 3d bb 39 2c c6 b9 e6 54 55 39
       -0.00024530047 -0.0028851589 -0.0003779845 0.0002034489
000080 ea a1 03 bc f9 17 1a 3c 57 3b df 3a ad e0 a7 3c
       -0.008034209 0.00940513 0.0017031234 0.020492876
000090 09 08 a9 bb 67 37 c5 bc f0 28 8e 3a d9 9a a5 bb
       -0.0051584286 -0.02407427 0.001084594 -0.0050538597
0000a0 58 25 28 3a b3 e3 ec bb 4e 5b 1c 39 0c 07 c5 b9
       0.0006414256 -0.0072292923 0.00014911333 -0.00037580018
0000b0 99 df 78 3b b5 5d 7a b9 70 e0 9e 3b dd 64 aa bb
       0.0037975071 -0.00023876766 0.0048485324 -0.005200012
0000c0 17 e6 be bb 24 40 43 ba d9 15 2a 3a 18 a6 2b 3a
       -0.0058257687 -0.00074482174 0.0006488241 0.0006547882
0000d0 f6 69 2d bb 32 61 28 3a 72 7f a4 bb 3b e9 69 3c
       -0.0026460863 0.00064231746 -0.0050200755 0.014276798
0000e0 0a 51 27 3c 8c e2 2f bc 06 86 29 bc 25 cb 01 3b
       0.010212192 -0.010735165 -0.010346895 0.0019804921
0000f0 d4 d8 fa bc 55 e5 70 bb b6 24 b8 bc f8 71 56 bb
       -0.03062097 -0.0036757786 -0.022478443 -0.003272174
